save_FashionMNIST/pretrain_model.pth (torch, 400875 bytes, 1 tensors)

bnn_classifier.weight f4 [10, 10000]
00000000: b8fd 3a3c fcfa 5fb9 45c0 69ba 7e8d 823a
00000010: 4201 e2ba c14e dbba 1fce 9a3a 2662 5b3b
00000020: 6936 78ba 3ec2 87bb 953f 42bc da41 83bb
00000030: 53f3 ea3a ad7a c5bc 6a47 893b 37a4 9a3c
00000040: b9d9 0dbd 922a 21bb 8497 13bb 2c6a 16b7
00000050: 0c40 863c ef0c b13c 339d a1bc 43b4 623a
00000060: 0154 b0bb 2f06 a8bc 71f0 a33c 7469 b93a
00000070: 54de f43b f1cc b2bc 3987 98bb f9b3 b5bb
00000080: 45a2 3a3a fc84 8cb9 b84d 03bb 496f 25bc
00000090: 7f22 813a 09cc 08bb 3db4 f1bc 033b a3bc
000000a0: e0a4 60bb 4c86 4939 ce73 da3c b764 c23c
000000b0: 139e b0bb 2787 a2bc e51f 083c e31b f6ba
000000c0: c2b9 e63b 001c a038 e83f 5a3b 79fe 86bb
000000d0: e5a6 dc3b db8b 9e3b 7176 3439 4de2 c13a
000000e0: 2559 1335 a1f6 81bc 64e9 523b dec1 413c
000000f0: c55a a0bb bcdb b93a 9dcb 9dbc b497 283b
00000100: 17f6 70b9 e7f2 8a3c 5acf a73a aeb6 233a
00000110: 2aec 753b 7263 c9bb 53d1 8abb b2de 6237
00000120: 5ba5 ce3b 1af6 973b 53b1 0b3a 1025 cebb
00000130: 9422 efbc 9297 1cb6 0010 e83c 7ba6 e637
00000140: 50d5 b83b 17cd 2cbb 83e2 b93a 970c 61b7
00000150: 15c5 333b e643 ffbb c071 f93a 25fd d03b
00000160: f9fc 4c3c d493 41bc 37f0 a13b 541a 7a3b
00000170: 4915 b3bb 93b6 a0bc b9c2 a839 0db8 3dbc
00000180: ec47 183a 6e30 51b6 c313 99ba dd26 1639
00000190: feb1 96bb 72e3 e6bb 6059 05b8 14e2 a7ba
000001a0: 1d60 73bb 9eb3 513a e66b 443c eb2f 123d
000001b0: bf38 b5bb c643 093c ea24 c337 25b8 9bbb
000001c0: 365a 7db9 d251 c83b 965e aebc 5f56 c4b6
000001d0: 26e9 6f3c e4c3 9bbb 521a 8037 1791 ed39
000001e0: df09 72bb f086 2b3b ec55 34bb e7a5 ea39
000001f0: 6900 86ba ac93 5fbb 615e 253d 987c 39bc
00000200: 34ce 2837 8fbe 67ba 3faa 2abb f8b6 113c
00000210: 5423 24bc b6a3 afbb 9082 523b 9baa 7fbb
00000220: b9af cb3a c26d 17b8 00cf 8fbc ea1a 2fbb
00000230: b20f ccb9 2a66 0a3d 2ee8 26bc d419 513b
00000240: e49a 11bc 80d9 3839 c78d ab3c ea43 6b3c
00000250: ffe1 0437 72c8 83bb b94c 59b6 5196 5f3b
00000260: ee6d b93c 6813 8e3b 4174 1f3c 75ef d137
00000270: bd70 a53a 797d cfbb 1569 7b3c 43b4 573c
00000280: 6e94 05bc dc0a 1fbb dcff b43b bb31 4c3c
00000290: 88ca e23b 4708 5138 f2af 9839 6d03 293c
000002a0: 0bcb 063b c235 f9bb 36a0 44ba 306a 8a3a
000002b0: ca62 743b 962d b8bc 3c70 9a3b a1da 593c
000002c0: e96c 64bb 85bd e2bc 7e37 9c39 5a71 34bd
000002d0: 8349 3639 fb81 6dba 3eae 45bb 09b0 d73c
000002e0: 0338 8fbb 8fa1 3839 f5b0 cebb a27a e1bb
000002f0: 5317 c539 215d d6ba 9eb8 47bc 5d7b 363b
00000300: 3ae9 f935 3d06 31bc 8d56 703c 5272 7d3b
00000310: 6662 143b 9f12 d3bb b5d4 313a f441 ddbb
00000320: 3544 503a f8af dc3b 9a4a 2bbb 07a8 5639
00000330: 0d49 beba 4d0a f5bb 8e88 03bc 1f74 3dbb
00000340: 99fb 88bc caf9 143c cb58 3e3c 98df 31bc
00000350: 81d2 4239 7bb3 11bc 1d16 3a3c 60e0 a9bc
00000360: ade2 bcbb 68ad 4dbb c53d f8b9 1c97 52bb
00000370: c208 373b d7d6 20bb 7d7d 6ebc 5cb0 a53b
00000380: 6b9e 413a 3157 50b9 ec9b 84bb 8880 02bc
00000390: 6209 173c 904c baba 896e d8ba cdcb daba
000003a0: 1f39 163b 1ecf a33a b454 5938 54a2 0439
000003b0: 0130 9fbb 4f60 51bb 291f ef3c edb8 af3b
000003c0: 5476 123c 0de4 a0ba 13a3 f6b9 d5b6 54bc
000003d0: 00ee f53b 9a54 573b 19a5 adbb ac98 283b
000003e0: 9a0a 973c aef0 033c a93d 77b7 1f1a 9d3c
000003f0: 3f66 e83a 5e85 183c 3311 00bc 7280 a4bc
0.01141303 -0.00021360436 -0.0008916895 0.0009960381 -0.0017242806 -0.0016731845 0.0011810696 0.003347525
-0.0009468557 -0.0041430285 -0.011855979 -0.004005653 0.00179253 -0.024106348 0.0041894214 0.018877132
-0.034631465 -0.0024592024 -0.002252073 -8.965417e-06 0.016387962 0.021612613 -0.019728279 0.0008648077
-0.005381108 -0.020510761 0.020012112 0.0014145807 0.0074727926 -0.02182624 -0.0046547917 -0.005545136
0.0007119517 -0.00026801962 -0.0020035338 -0.010097333 0.00098522 -0.0020873568 -0.02950489 -0.0199256
-0.003427796 0.00019218883 0.026666548 0.023729665 -0.0053899377 -0.019839836 0.0083083855 -0.0018776621
0.007041187 7.63461e-05 0.0033302251 -0.004119691 0.0067337626 0.0048384494 0.0001721026 0.0014792174
5.489149e-07 -0.015864672 0.0032182569 0.011826007 -0.004893633 0.0014179866 -0.01926213 0.0025725188
-0.00022979859 0.016961528 0.0012802884 0.0006245178 0.0037524798 -0.006145888 -0.004236379 1.35225e-05
0.006306333 0.004637492 0.00053288526 -0.0062910393 -0.029191293 -2.3334037e-06 0.028327942 2.749566e-05
0.005640663 -0.002636736 0.0014181886 -1.3413976e-05 0.0027430702 -0.0077900765 0.0019031093 0.0063778334
0.012511485 -0.01181503 0.004941966 0.0038162665 -0.005465184 -0.019618308 0.00032188537 -0.011579526
0.0005809057 -3.1171617e-06 -0.0011678863 0.00014319592 -0.004598855 -0.0070461566 -3.1792908e-05 -0.0012808465
-0.0037136145 0.00079994823 0.011988616 0.03569023 -0.0055304463 0.008377975 2.3263001e-05 -0.0047521763
-0.00024161566 0.0061132694 -0.021285336 -5.85131e-06 0.014642989 -0.0047535766 1.5271045e-05 0.00045312263
-0.0036932153 0.0026172958 -0.0027517034 0.00044755565 -0.0010223511 -0.003411512 0.04037321 -0.011321209
1.0061591e-05 -0.0008840346 -0.0026041416 0.008893721 -0.0100181885 -0.005360092 0.0032121278 -0.00390116
0.001554004 -3.6103425e-05 -0.01755476 -0.0026718923 -0.00038921606 0.033788837 -0.010187192 0.0031906264
-0.008887026 0.00017628632 0.020941628 0.014359454 7.920432e-06 -0.0040216977 -3.2380178e-06 0.0034116695
0.022635426 0.0043358095 0.009732307 2.5026247e-05 0.00126221 -0.006332096 0.015344878 0.013165536
-0.008153064 -0.0024267947 0.005523665 0.012463029 0.0069211163 4.9837192e-05 0.0002912279 0.010315758
0.00205678 -0.0076052854 -0.000750068 0.0010560211 0.0037290328 -0.022482675 0.0047130864 0.013296754
-0.0034854955 -0.02767826 0.00029795984 -0.044053413 0.00017384258 -0.0009060201 -0.003016367 0.026329057
-0.004370691 0.00017607793 -0.006307716 -0.006881074 0.00037592146 -0.0016354659 -0.012190012 0.0027844526
1.8619824e-06 -0.01080471 0.014669073 0.0038672877 0.0022641658 -0.006441429 0.000678371 -0.006752247
0.0007944734 0.0067348443 -0.0026136995 0.00020471225 -0.001451762 -0.0074780346 -0.008028163 -0.0028908325
-0.016721534 0.0090927575 0.01161785 -0.010856532 0.000185797 -0.008892889 0.011357811 -0.020736873
-0.0057643265 -0.0031383876 -0.00047348268 -0.0032133525 0.0027928804 -0.0024542117 -0.014556286 0.005056424
0.0007385972 -0.00019868907 -0.0040469076 -0.007965215 0.009218546 -0.0014213491 -0.0016512434 -0.0016692817
0.002292223 0.0012497639 5.1815718e-05 0.00012648973 -0.0048580174 -0.0031948274 0.029189663 0.005362621
0.008939344 -0.0012274996 -0.00047042276 -0.012983044 0.0075051785 0.0032856823 -0.005299222 0.0025725765
0.018437672 0.008052988 -1.4736704e-05 0.019177495 0.0017730667 0.009309141 -0.007816601 -0.020080779
