save_FashionMNIST/refine_model.pth (torch, 40875 bytes, 1 tensors)

refine_classifier.weight f4 [10, 1000]
-8.711571e-06 4.9671064e-07 -0.025251672 -0.023526652 0.053779982 0.040583123 0.038053222 -4.544209e-07
-0.011141963 0.057207238 -0.037382808 -3.6308563e-07 -0.011877215 -0.07145032 0.060993325 1.2329842e-06
-0.062809624 -0.07410147 0.0130670145 0.03208314 0.043448552 6.6785226e-08 1.4665991e-07 0.0006767674
0.020116543 0.018149314 0.047720388 -0.024846865 -0.06462076 1.2410882e-07 -5.3695626e-08 -4.7132642e-07
0.08169908 -0.015143043 0.0059118364 5.676624e-07 0.023226444 1.2819933e-07 0.0016886947 0.037421957
-0.065544315 -0.011627172 0.019604784 7.866059e-07 -0.0007239625 -0.0024018602 0.062143978 0.001642185
-0.03135608 0.048546553 -2.408974e-07 0.0662319 -0.03751805 -0.0073937452 -8.10924e-08 -2.2069578e-07
0.009852586 -7.2635025e-08 -0.027486905 -9.489445e-06 0.07114136 4.3592703e-07 0.0034760463 -7.364945e-07
-0.052032493 0.020129886 -0.050757118 0.010885311 0.07058346 -0.085048065 -0.012512492 0.018779023
-3.097e-07 -0.024379646 0.008119363 -0.047960315 -3.925246e-08 0.015005397 1.6268923e-07 -9.370309e-07
0.007308591 0.016709045 0.033596415 0.015513078 -0.012246589 -0.0086376965 5.729266e-07 -0.03586168
0.04546753 -5.984788e-07 -0.064686425 0.057132717 0.12459377 -0.022768384 2.0327718e-06 0.04329696
-0.088030964 0.019286687 0.013767857 -0.0035668705 -1.0609017e-07 -0.023272283 2.3198398e-07 -0.048141733
-0.0012531 0.038052604 0.027871007 -0.02025594 0.11711265 -5.147399e-07 -0.048877366 0.03241521
0.007584407 -0.004691984 -0.023071075 1.2451966e-06 5.8359665e-06 0.014283495 0.0323913 -0.016041761
-0.032451335 -0.0011288377 -6.7669355e-08 -0.03986094 -0.0032988666 -0.026013132 0.027194412 0.0049857767
-0.003417547 0.006882873 -0.011427137 0.0046130093 -5.1956874e-07 0.030782215 1.9510338e-07 1.2945083e-07
-0.07153574 0.023165887 -0.007126661 -1.016009e-07 -3.819418e-07 3.306838e-07 -0.08574302 0.056836553
0.049091756 1.2487787e-08 0.051018115 0.02254425 0.026358556 -9.746337e-08 0.030661551 1.2372067e-07
0.026724603 0.024405679 0.048308183 -0.067439385 -0.010424893 0.004463219 -0.12281306 -0.028107276
0.0013005566 -0.0010585864 -3.9638425e-07 8.791691e-08 0.0062033003 -0.049000002 1.40029e-07 -0.037905574
-6.372067e-08 0.02584183 0.02992162 5.504032e-07 -0.03596802 0.016738787 -0.00722213 0.024796989
-3.110479e-08 0.07935135 -0.051092498 -0.0022967723 -0.091048814 -0.03404724 0.054686252 -0.027259935
2.2490214e-07 -0.12271434 0.023822417 0.019208658 -0.013205865 -0.016509706 0.005873471 -7.748969e-08
2.0633698e-07 -0.0030316976 0.013270034 0.0014335682 -0.017838044 0.00032935958 0.12546189 -0.03569658
3.6021852e-08 0.048242334 0.009518862 -3.9512722e-07 -0.0029567236 -0.033506986 0.017576654 -0.013905192
0.033562027 0.003391597 0.012693076 0.036156762 1.5520448e-06 0.06552874 0.0032253263 5.542062e-07
-4.457557e-08 0.08793568 -0.016888661 -6.0213296e-07 0.08599499 1.0042094e-05 -0.01887373 0.023616163
-2.4502248e-07 0.09841212 -0.014954198 -0.06059198 -0.024482101 -0.010532351 0.00095859973 -0.05028053
-0.012068308 -0.07525559 0.00841921 0.0039576767 0.061757755 0.029850084 -0.058036193 1.0416601e-06
-0.016325576 -0.020409117 3.334057e-07 -0.0352515 0.026136287 0.062550664 -0.02123756 -0.017136412
-0.007722008 -0.024326745 0.0021131407 -0.06397823 -0.03651451 -1.0203668e-06 0.15308398 -0.04680644
00000000: ea27 12b7 b255 0535 98dc cebc f7ba c0bc
00000010: 6648 5c3d 7d3a 263d b2dd 1b3d 22f7 f3b4
00000020: c88c 36bc 2352 6a3d b71e 19bd 1cee c2b4
00000030: a698 42bc 8c54 92bd 23d4 793d 047d a535
00000040: 55a2 80bd 83c2 97bd 0817 563c 9c69 033d
00000050: 1cf7 313d 916b 8f33 9279 1d34 1769 313a
00000060: 73cb a43c dfad 943c 7476 433d a78b cbbc
00000070: e457 84bd c642 0534 f79e 66b3 9c0a fdb4
00000080: d951 a73d 871a 78bc 14b8 c13b 7761 1835
00000090: 6245 be3c 2aa7 0934 3157 dd3a c447 193d
000000a0: 193c 86bd e57f 3ebc 369a a03c 2527 5335
000000b0: 4dc8 3dba 8768 1dbb af8a 7e3d 963e d73a
000000c0: 3c6f 00bd c0d8 463d b054 81b4 97a4 873d
000000d0: 87ac 19bd 3b47 f2bb 0525 aeb3 65f8 6cb4
000000e0: be6c 213c 87fb 9bb3 382c e1bc db34 1fb7
000000f0: 90b2 913d 5b09 ea34 61ce 633b 84b3 45b5
00000100: 0620 55bd 6ee7 a43c b2e6 4fbd 4e58 323c
00000110: 108e 903d ae2d aebd 3201 4dbc 77d6 993c
00000120: d844 a6b4 d3b7 c7bc 1407 053c 0972 44bd
00000130: 8996 28b3 32d9 753c adaf 2e34 4688 7bb5
00000140: e87c ef3b 68e1 883c 659c 093d 912a 7e3c
00000150: eba5 48bc 2085 0dbc 37cb 1935 b2e3 12bd
00000160: 293c 3a3d 26a7 20b5 517a 84bd ff03 6a3d
00000170: 052b ff3d c384 babc c16a 0836 2758 313d
00000180: 9449 b4bd 1dff 9d3c 9492 613c 28c2 69bb
00000190: b0d3 e3b3 84a5 bebc 4517 7934 4430 45bd
000001a0: 0f3f a4ba 0cdd 1b3d bd51 e43c c9ef a5bc
000001b0: c2d8 ef3d a82c 0ab5 a233 48bd d0c5 043d
000001c0: 9e86 f83b 37bf 99bb 8dff bcbc a120 a735
000001d0: 92d2 c336 5205 6a3c bdac 043d 036a 83bc
000001e0: b1eb 04bd 82f5 93ba 9f51 91b3 3a45 23bd
000001f0: cc31 58bb 7e19 d5bc d1c6 de3c ba5f a33b
00000200: edf8 5fbb b989 e13b e338 3bbc ba28 973b
00000210: 7e78 0bb5 fc2a fc3c 9c7d 5134 2cff 0a34
00000220: 5481 92bd 63c6 bd3c c486 e9bb af2f dab3
00000230: ae0d cdb4 d688 b134 099a afbd 72cd 683d
00000240: 7014 493d de89 5632 5ff8 503d b8ae b83c
00000250: e6ed d73c 0e4d d1b3 ef2d fb3c 14d8 0434
00000260: 8eed da3c 6bee c73c cdde 453d a91d 8abd
00000270: 2ccd 2abc 3240 923b 6a85 fbbd 3b41 e6bc
00000280: 7077 aa3a 44c0 8aba a3ce d4b4 d5cc bc33
00000290: 0e45 cb3b 3ab4 48bd e15a 1634 e042 1bbd
000002a0: cfd6 88b3 3fb2 d33c 2f1e f53c 6bbf 1335
000002b0: 3453 13bd c81f 893c 9ea7 ecbb 0e23 cb3c
000002c0: 1498 05b3 f682 a23d 5e46 51bd 7285 16bb
000002d0: cd77 babd 1e75 0bbd b1fe 5f3d 3a50 dfbc
000002e0: a17c 7134 a851 fbbd 3b27 c33c 7a5b 9d3c
000002f0: 6a5d 58bc 5d3f 87bc 3f76 c03b 6868 a6b3
00000300: 7a8d 5d34 72af 46bb 8f6a 593c 91e6 bb3a
00000310: 1721 92bc e5ad ac39 1579 003e 9436 12bd
00000320: 72b6 1a33 c199 453d 00f5 1b3c df21 d4b4
00000330: 97c5 41bb 9f3e 09bd eafc 8f3c 9ad2 63bc
00000340: 5678 093d 8e45 5e3b 9ff6 4f3c 1d19 143d
00000350: da4f d035 ef33 863d ff5f 533b c3c4 1435
00000360: 5c73 3fb3 9f17 b43d 175a 8abc 43a2 21b5
00000370: 241e b03d 777a 2837 159d 9abc af76 c13c
00000380: a28b 83b4 4b8c c93d 7402 75bc 4c2f 78bd
00000390: b08e c8bc e28f 2cbc 8a4a 7b3a f5f2 4dbd
000003a0: 27ba 45bc 9a1f 9abd baf0 093c 66af 813b
000003b0: b3f5 7c3d 2a88 f43c 5cb7 6dbd 2bcf 8b35
000003c0: 37bd 85bc 0531 a7bc eefe b234 e063 10bd
000003d0: c41b d63c 901a 803d 64fa adbc a961 8cbc
000003e0: e608 fdbb e248 c7bc 9e7c 0a3b 0507 83bd
000003f0: 3d90 15bd 89f3 88b5 0cc2 1c3e 1cb8 3fbd
